neural-network-1.pth (torch, 15071 bytes, 6 tensors)

weight f8 [32, 8]
0	0x3fd51beb368c7188	0.3298290283871883
1	0xbfeb4d6af4c2ba21	-0.8532004147035118
2	0x3fddee0fb584f164	0.4676551125192161
3	0xbff0ed898ed014a1	-1.057992513525541
4	0xbfe36977af2bf1b1	-0.6066244527169627
5	0x3ff09424b7d746bd	1.036167829636198
6	0x3ff112247ecee86e	1.0669293359228749
7	0x3fd9de35268a2355	0.4041874767649934
8	0x3fce7bfd78349121	0.23815887803460448
9	0xbfdd7b199040f276	-0.4606384190299545
10	0xbfde945e5b744ef5	-0.4778056996449174
11	0xbfee8aee4d5c8a08	-0.95445933446564
12	0x3f8e331eb8ef1ea4	0.01474594117998091
13	0x3feda14964451a65	0.925938316192355
14	0x3fdc070bc0514816	0.43793004780775513
15	0x3fd5aefa5e61fdad	0.3388048097330863
16	0x3ff03f48d125d54f	1.0154503030619997
17	0xbfbcec2f4c9334ec	-0.1129788934660671
18	0x3ff548f2162e86b8	1.3303089968180029
19	0x3fd2385d1c74a851	0.284690168179286
20	0xc001b79393ad3538	-2.214636949275384
21	0xbfc10dc05b789db5	-0.1332321592937952
22	0xbfd1af8c4f80bddd	-0.276339604987667
23	0x3fd4c19f716913a6	0.3243177993320451
24	0x3fc584f9af07d6f9	0.16812058493058382
25	0x3feb5fe0d0e36df2	0.8554538802958958
26	0x3fd337f38a5220f9	0.3002899981297698
27	0x3fc505f17f99cb8d	0.16424387674814192
28	0x3fc27420c323eaae	0.14416894462904878
29	0x3fd63ade012f6d9f	0.34734296909092593
30	0xbfcb9f23d56f468b	-0.21579406663527254
31	0xbfdb89bc90cd1459	-0.43028177395564665
32	0xbfde7925c26264f9	-0.47614425642821306
33	0xbfee9cb5ccad4d03	-0.9566296575161747
34	0x3ff689699e8c7197	1.4085479920678148
35	0xbfe79fee00918a5d	-0.7382726679900987
36	0xbfe33adb7365090d	-0.6009347204019676
37	0x3fdc739afe50d499	0.4445559962799251
38	0x3fe1877f7d33e8c7	0.5477902837149252
39	0x3fd53b5ac3bf47a7	0.3317477141946434
40	0x3fda44ecee46b91a	0.4104568793217297
41	0xc0159f6462bc61e3	-5.405656378505657
42	0xbfe56512cb5bd194	-0.6685880634163817
43	0xbffe6a2c2bf40f23	-1.9009210316589324
44	0x3fed3372c20141dd	0.912530306735842
45	0x3fb09ea9e5825a45	0.06492101529361445
46	0xbfab9c17d7eb8251	-0.053925271136681226
47	0xbfc667ee1f311c57	-0.17504669688261984
48	0x3fd64546a6073738	0.34797826970758505
49	0xbfad4f93eed9576a	-0.05724775591504179
50	0xbfdd61ff38db8d50	-0.4591062598467106
51	0xbfb9f58a15011675	-0.1014028836517243
52	0x3fd5fe93a8355260	0.34366313387480396
53	0xbff464af247fc43a	-1.2745810914750693
54	0xbfafdecfdcb6334a	-0.06224679536089768
55	0x3ff0f4867c2cdb51	1.0596985674471464
56	0x3fb42e33c2ce2619	0.07882998949039467
57	0xbfdd1378330998a6	-0.45431332573060457
58	0x3fd2f4da952b7547	0.29619469230040746
59	0xbfe982587c53fea1	-0.7971613338740619
60	0x3fa0c5b3de54cff7	0.03275835122113329
61	0x3feb204df0937039	0.8476934145687728
62	0x3fda6ac0e199795a	0.41276571303560206
63	0x3fd7745a58c77215	0.3664766184790847
64	0x3fd3842769305406	0.3049410369142723
65	0xc01371bf396835a9	-4.86108102510972
66	0xbff922949f2210ae	-1.5709425178656988
67	0x4005f92ad690bf56	2.74666373852953
68	0x3fbf2a7181b09cbf	0.12174138466126559
69	0x3fc3fa1d8091fb5e	0.15607041147083128
70	0x3ff0d95c8ccbe0f1	1.0530667781695764
71	0x3fed609dc472ee2c	0.9180439793485156
72	0x3fd632cfa880de5d	0.3468512673893878
73	0xbfb5d0a9533d7ef3	-0.08521517069084066
74	0xc007db7c3a641fb0	-2.982170540028129
75	0xbff8c53f1e8b5215	-1.5481558983930246
76	0xbfe7f2cb85f40815	-0.7483880630754834
77	0x3fe6be99807a7be4	0.7107665547699722
78	0x3ff9a547d8150055	1.6028517189697784
79	0xbfc879bab2c7884c	-0.19121488313163792
80	0xbfb53ce8c9657ee3	-0.08296065251260702
81	0x3fd946ca9fb0f490	0.3949457702145276
82	0x3fe6127312e2dbcb	0.6897521370764194
83	0xbfd7db374f78bba5	-0.372754886254308
84	0x3fdbbd7747b9671d	0.4334390831405573
85	0x3fd6a5ae7190c5e3	0.3538623913801457
86	0xbfd1e3cfecab997e	-0.27952955353102726
87	0xbfd20ab4549cb943	-0.28190334570799197
88	0x3fde426bc64cea1e	0.47280401578214704
89	0xbfb80e360fa6e4c5	-0.0939668453419414
90	0x3fe910e8ba9f7efb	0.7833140988331871
91	0xbff163ed796f30e3	-1.0868963950661559
92	0xbfeebdd11067d939	-0.9606709785864843
93	0x3fe81fa5650d9daa	0.7538630460448321
94	0x3fe6ac7c455bef7a	0.708555350749051
95	0xbfc8398aeabc567f	-0.18925606214240884
96	0xbfd1a2f7ef853d3c	-0.2755718077723548
97	0xbff3d22ff1510b19	-1.238815252917169
98	0xbfd351ea2fdd480a	-0.3018746821809378
99	0x3fe037be9530df8f	0.5068047441372857
100	0x3fd176e23701b32d	0.2728810822653028
101	0x3fd1992b28f4e6f6	0.27497366904900333
102	0x3ff53f73509d5648	1.3279908322341658
103	0x3fdb13dd33a4a426	0.42308740657114396
104	0x3fb30f413e726959	0.07445152067740447
105	0x3fb50c049c25f316	0.08221463024342443
106	0x3fd0d595cf03d0bb	0.26303620544718925
107	0xbfea7f7b8399e778	-0.8280618257842738
108	0x3fe848a2e3208e97	0.7588667331769611
109	0x3fb320cfb9a2bed1	0.07471941263315364
110	0xbfde2967ac0d693a	-0.4712771587561694
111	0x3face780c0301e86	0.05645372720760826
112	0xc00288de666efead	-2.31683044458608
113	0x3fda42581def9b6c	0.4102993290275012
114	0xbfebc59375080156	-0.867868164612484
115	0x3fc6090e4dd2a0b1	0.1721513633722274
116	0x3ff155178ba2e9ea	1.0832744078203356
117	0x3fde9ceee0ccdac8	0.47832843735833963
118	0xbfc0fdc53bf71a5c	-0.13274445941916013
119	0x3fc4747565c16005	0.15980403393291467
120	0x3fc48e2892154bd1	0.16058833249061746
121	0x3fe228357cbfd277	0.567408317233073
122	0x3ff2a66b471135a0	1.1656296516478974
123	0xbfe8a7cdb4dd77d7	-0.7704838306924512
124	0xbfe17249eb6f3c84	-0.5452012632685102
125	0x3fdde9489a9059e7	0.46736350149276834
126	0x3fe3ffa69f2431c1	0.624957381079689
127	0x3fabdc8c2e949e39	0.05441701954469775
128	0x3fe2faf2c6887268	0.5931333425138066
129	0xbfab58d7755ec077	-0.053412182881744145
130	0x3fc4bd67c8b74bb6	0.1620301942881192
131	0xbfe4369c304049b3	-0.6316662733464028
132	0xbff93ed4eefbb7a0	-1.5778397879871378
133	0xbfe1b3d21e52e249	-0.5532007782231371
134	0xbfb1415f615248b0	-0.0674037563897254
135	0xbfe6083a2eb77fae	-0.6885043060719818
136	0x3fe00cbeadfb5dd0	0.5015557668766011
137	0x3fda1ce6bf0dec5b	0.40801399858145765
138	0xbfcff403e2fc8a1a	-0.24963425238918618
139	0x3fc63b596eb233e7	0.17368619828303553
140	0x3fd74d7f6e618532	0.36410508899105587
141	0x3fb68cc3444839d3	0.08808536927265402
142	0x3fb1d84d10e7bab1	0.06970674193119454
143	0x3fb6dcc724d5c72c	0.08930630349439345
144	0x3fdf96ff1d3d9c9d	0.4935910974076679
145	0x3fcb7cf2e6de42cf	0.21475063584195772
146	0x3fe3aa7ba04b1b44	0.6145609026651546
147	0x3fb24bb105f69597	0.07146746059023311
148	0x3fdfeb8b68f3404e	0.49875149964373555
149	0x3ffd30bf9f27ee34	1.824401494696656
150	0xbf74c21e17ae98c8	-0.005067937420710496
151	0xbf9eb80c9f550acd	-0.029998967385163767
152	0x3f98fcfa09af9dc4	0.024402529565035427
153	0x3f96d39e7b2e71ad	0.02229163767661795
154	0xbf943906218ab63f	-0.019748779103500032
155	0xbfc747401cc9db25	-0.18186189084709628
156	0xc01419fe75f97e18	-5.025384753563706
157	0x3fe0ca0e136235dc	0.5246649149500473
158	0x3fbb959e5c0df31e	0.10775174853729338
159	0xbfc2be8fe6135d83	-0.14644049390947708
160	0x3fc4aa021aea681d	0.16143823923340586
161	0xbfe0a35c204d78b5	-0.5199413901243789
162	0xbfd33dc3b6e4aa72	-0.3006448064867647
163	0xbfe13856faedd4a2	-0.5381274128873381
164	0xbfe2c9db323533ff	-0.5871406536695075
165	0x3ff2cc00c393fb7a	1.1748054160850345
166	0x3fe5f3e4767349fc	0.6860220254405358
167	0x3fe41157dc772163	0.6271170907939844
168	0xbfc43ea42269c781	-0.15816165619213154
169	0xbfe844996ba2a32a	-0.7583739378215786
170	0x3ffa94e18947f55b	1.6613479006330951
171	0xc0102eeae4124036	-4.045817912687246
172	0x3fef9846aead8337	0.9873383914638002
173	0xbff02a8844a6b3d3	-1.0103838617026113
174	0xbfebefc2395965f8	-0.8730174179174233
175	0xbfe37d38f1e0353a	-0.6090359424721676
176	0x3fd41f8d720a6278	0.31442581307195594
177	0xbfd793efb25bf386	-0.3684043161190903
178	0x3fc74c6a4670ce13	0.18201950492367355
179	0xbfeed04be181af39	-0.9629268078256025
180	0xbfe89e8b2f1b1dec	-0.7693534774816135
181	0xbff910d4fecfb9f8	-1.5666093782016315
182	0xc003d16a069f5e35	-2.477253009546781
183	0x3fc3677bf2afacef	0.1515955862990732
184	0x3fe83cc1047afe5a	0.7574162566670097
185	0xbfb614f88250db8c	-0.08625748807467754
186	0x3fdf5cdff42c4988	0.49004362912196386
187	0xbfe3c5d474e7b081	-0.6178991587926391
188	0x3ff403ce6999af1d	1.250929272176058
189	0x40014d7fbf496eb1	2.162841314724425
190	0xbf884cd8db74c6a6	-0.011865324208517446
191	0xbfd37689dcc27305	-0.30411001738120574
192	0x3fc04b2af40a0d47	0.12729393878917447
193	0xbfd5350e8e000c10	-0.33136333338933444
194	0x3fe8b1a28c0fbd8b	0.7716839538169763
195	0x3fbb46b6c6ea03ef	0.1065477595930273
196	0x3fb8e72b643ca694	0.0972773666113887
197	0x3fe04c7499e3f23f	0.5093329435035868
198	0x3fe003637ed06949	0.5004136540258425
199	0x3fb4c89ff76f24d1	0.08118629256127298
200	0x3fad84a59079bfd2	0.057652639280490484
201	0xbfafd28d0270d530	-0.06215325026316021
202	0xbfdd10162524762d	-0.4541068423003221
203	0xc015a8ae5583ced9	-5.4147275315951555
204	0xbfabdfc926f060f5	-0.0544417247803625
205	0x3fd5f81d489217fe	0.3432687004755052
206	0x3f9aa75ab923195d	0.026029031324264696
207	0x3f9cb6e618972bc6	0.0280414536007745
208	0x3feab8332a1688fd	0.8349853345901291
209	0xbfc7a085eaad6adc	-0.18458627661569593
210	0x3fe1621a34c44af9	0.5432253866768796
211	0xbfd91bf57157c441	-0.3923314673293739
212	0x3ff2b59d20191ad6	1.1693392995672887
213	0x3fdeb694428a700f	0.4798937463581305
214	0x3fd360c75c082894	0.30278190600859856
215	0x3fdf4d6e5bbb962d	0.4891010185077416
216	0xbfc45efc0a33b928	-0.15914869783541374
217	0xbfd110f48facf395	-0.2666598704416228
218	0xbfd91e70967533d3	-0.39248289769312555
219	0xbfeb752af7000ff5	-0.8580527137969499
220	0xbfc550f05d09ad7c	-0.1665325598035955
221	0x3fec1dae81ba1e51	0.8786232503634414
222	0x3fd64015849ea5a5	0.3476613803018956
223	0x3fd3a41e69ce8932	0.3068920167226167
224	0x3fe5332c7ca70bb6	0.6624967989558772
225	0xbfac543075b443df	-0.05532981335466735
226	0xbfc35290f46f4982	-0.15095722136772954
227	0xbfb4dcbbd626fcab	-0.0814931295235392
228	0x3fd11de2e8a1a294	0.2674491187849892
229	0x3fda8e3504ec7b8c	0.4149296329578014
230	0xbfe508dc9280be99	-0.6573317395577362
231	0xbfb319a96b552c5b	-0.07461031790187304
232	0xbfbeacdb1988a8c1	-0.11982507108101272
233	0x3f9f7ae5251ce9b5	0.03074224509257713
234	0xbfb4b7370655778e	-0.0809206381286158
235	0xbfc555fad1f72d99	-0.16668639423583612
236	0x3fc3a2e20c6824ff	0.1534082947330617
237	0x3ff2fb74708fc9f9	1.1863903424206212
238	0x3fe0aae94858532d	0.5208631909359603
239	0xc002a70b0bcda122	-2.3315640375259514
240	0x3fc97847e3be05f0	0.1989831792853205
241	0xbfceb2423776b419	-0.23981502254665157
242	0x3fa35569e764eadf	0.03776102971683825
243	0xbfe8268d9bbffb67	-0.754706196021158
244	0xbfea4793e81e3c84	-0.8212375196034292
245	0x3ff240c314d0417f	1.1408110440280266
246	0x3fecee2c19151a6b	0.9040737619296356
247	0xbfe27083bd8ddcb7	-0.5762346937398409
248	0x3fd7126f04aac044	0.36050010162125923
249	0xbff8d0c167e9df80	-1.550965696251268
250	0xbfc69da5a72eb40b	-0.17668600714878865
251	0xbfd3f308f50ca5da	-0.31170867853742623
252	0x400238191febf77c	2.2773916715513547
253	0x3fea63642fb757b6	0.8246327335316355
254	0xbfa00559d3d67039	-0.03129082404049694
255	0x3fdcca93fc738984	0.4498643842072385

bias f8 [32]
0	0x3fa6262dd2ad16fe	0.043260032622624664
1	0x3fef9ce5336905ed	0.9879022602182751
2	0x3fd4ed604b79195f	0.3269882905045928
3	0x40060d492a7d50dc	2.756487209271752
4	0x3fef8dc951e8a804	0.9860579108983534
5	0x3fd766d7bc9e75b2	0.36565202159712407
6	0x3fd377343045f738	0.3041506263178806
7	0x3fefb179602782d1	0.9904143217100573
8	0x3fe445e3fe40c588	0.6335315671805555
9	0xbf60fb9cdc403cb7	-0.0020731033018886696
10	0x4000c31982e8c4b9	2.0952635028157514
11	0x3fe93389956b1090	0.7875411909412993
12	0x3ff7d59159986748	1.4896405696694774
13	0x4001e23e5270e837	2.235470432348872
14	0x3fa62822a53ef0b3	0.04327495829736119
15	0x3fe6485e25b383db	0.6963339554168856
16	0x3fe4ed8846fff257	0.653995646163433
17	0x3fffd99b65ae3c88	1.9906267139338372
18	0x3fee7266ba8aedbd	0.9514650004779736
19	0xbfa9a8a893a23dc7	-0.05011488725824225
20	0x3ff14fcb90e6f631	1.0819812450639683
21	0x3fefef5c81bd38d2	0.9979689153640499
22	0xbfd35cb3b0f434bd	-0.3025330761018486
23	0x3ff02e61233e5acb	1.0113231064512316
24	0x3ffa60c1d83f4204	1.648622364726294
25	0x3f83b3e0e7734f73	0.009620434821421253
26	0x3ff3b95e9edd949d	1.2327562528310303
27	0x3fea0bd63ab14d15	0.8139449259128094
28	0x40036509cc043a9e	2.4243350924292164
29	0x3fd3aacbf494f85e	0.3072996033187162
30	0x3fe798f2ef4b5211	0.7374205278125051
31	0xbfd385bc4c735ac3	-0.30503756967429413

weight f8 [32, 32]
0	0x3fde8a8d34f8f847	0.4772065179166742
1	0x3fcbf6b76e59ab3e	0.2184666909045862
2	0x3f83fe21f8d9da0c	0.009762063414410903
3	0xbfd60c711d2ac712	-0.3445093903384172
4	0x3fd42545b2ce22f9	0.3147749181885469
5	0x3fe6890c2831f659	0.704229429727728
6	0xbff643ecfd5dcc31	-1.3915834328770524
7	0x3fd5fae9870b674a	0.34343946636146383
8	0xbfc299a56d74e08e	-0.14531390995557952
9	0x3fc130bc0dfc3e4b	0.13429976160886023
10	0xbfc69ab0b707c824	-0.17659577309638153
11	0x3fa3815928e4b56f	0.038096224061841315
12	0x3fc6268009641155	0.17304993113078618
13	0xbfc44b1fd5b9661a	-0.15854261337044379
14	0x3fd6eba0af167c2c	0.35813157175465693
15	0x3f87f813b66295c8	0.011703638080073811
16	0xbfdb01e6005c17ef	-0.4219908717644775
17	0xbfdf66c24a1d3639	-0.49064690816598816
18	0x3fb9bc10f941a3e9	0.10052591405259616
19	0x3f9ee3cbba4c4d73	0.030165847058993344
20	0x3fc0552204246133	0.12759804918528914
21	0xbfafd110c6c5d5f6	-0.062141918434388474
22	0x3fe80d6117b8716e	0.7516332114496842
23	0x3fb4fcc75d169b61	0.08198209784187106
24	0xbf50cca9328055f2	-0.0010253574673745294
25	0xbfdc396925e83d37	-0.4410040731608719
26	0xbfbcd1c7f6e6620f	-0.1125760057242433
27	0x3fa53db6e9fda4a3	0.04148646932919433
28	0xbfcf595711e2238f	-0.24491394398890207
29	0x3fceaaa0d5a85b1c	0.2395821612596699
30	0x3fd951ee15fcb72f	0.3956256117552241
31	0x3ff5146be093e84b	1.3174856922692182
32	0xbfb84b902eb28469	-0.09490300312110524
33	0xbf9f520823a5728f	-0.030586363959957338
34	0xbfaeb724a461a6d5	-0.05999102121934433
35	0xbfbc923b85c87ae3	-0.11160633102597788
36	0xbfc449445e7589e3	-0.15848593342077696
37	0xbfad15dc972c37fe	-0.056807416394903484
38	0xbfa12e3996f0ce2d	-0.03355579345261748
39	0xbfb4e29491c5ccce	-0.08158234175589316
40	0xbfb6e5f1be7126ac	-0.08944617175543595
41	0xbfc202869fd32a47	-0.14070208362530165
42	0xbfc13a3c6f3803fb	-0.13458972387891763
43	0x3fa4ab78446b7eac	0.04037071070865514
44	0x3fbf133b88eb0dff	0.12138721554497776
45	0xbfc18d6053abbd00	-0.13712696156969884
46	0xbfbd7f59eb929004	-0.11522447587282164
47	0xbfa35b63be649c17	-0.037806622496923285
48	0xbfab8273f61db0fa	-0.0537296522078083
49	0x3fbf838d785af915	0.12310108364451751
50	0xbfc7578fe242e00a	-0.1823596815863769
51	0x3fb213f1f3015a0f	0.07061683829065422
52	0x3fc0646ccff0c4c2	0.12806472924561346
53	0x3fc56cae97f0bce0	0.1673792116066357
54	0x3f7f946673d1e3fa	0.007709884838839715
55	0x3fb5e2c6c825f334	0.0854915846484346
56	0xbfbd61eb57ceae06	-0.11477538007482488
57	0xbfb7287d24682097	-0.09046156061970333
58	0x3fb10e5b34492061	0.06662530924325118
59	0xbfc030a7fada7bd4	-0.12648486851409635
60	0xbfa66c9f96cac3f4	-0.043797480733139965
61	0xbfb6bcf286d2be24	-0.0888206080587613
62	0x3fbbf7b737d833d5	0.1092485915507518
63	0x3fafe9e7ebf82e51	0.062331435732713054
64	0xbf9c3b4f3a558840	-0.0275699977258983
65	0xbfbad60f3258e7c9	-0.10482878665143781
66	0x3fba004c88a8f992	0.10156706177165223
67	0x3fafd22d48d032d1	0.062150397432650835
68	0x3f965a0d32554998	0.021827894398776942
69	0x3f7d007f972f36a2	0.007080553436890876
70	0xbfb9a5def4977f75	-0.1001872393749162
71	0xbfb27b49feded9c2	-0.07219374153542105
72	0x3f953d7a4dd9f42c	0.02074233150641562
73	0xbfb7fc9022abf907	-0.09369755598524786
74	0xbf7e91eb2c41cb9b	-0.007463377613123347
75	0x3fb90fa8d4112f1e	0.09789519479198502
76	0xbfbe855a01d7fa67	-0.1192222837926039
77	0xbfb529cba0c7303b	-0.08266899752851568
78	0x3fbbc2a3be8ee2aa	0.1084387150029992
79	0xbfc158da96eeb951	-0.1355241047835514
80	0x3fb3b49f534cb3ac	0.07697482856447263
81	0xbfc744298bb50422	-0.18176764794955697
82	0xbfa6b72909cdbb92	-0.04436615223573094
83	0xbf83f26b1ba14707	-0.009739720135403042
84	0xbfbea3539950a601	-0.11967966549914168
85	0x3f804716ce62598a	0.007948091672272967
86	0x3fa0b10cc73cb1fc	0.03260078365414995
87	0xbfbecbbe5c179df4	-0.12029638050409358
88	0x3f652986b0e85aec	0.002583277767608796
89	0xbfaa3475c40c950b	-0.05118148821046916
90	0xbf95f38139657b5a	-0.021436709526251853
91	0xbfcae832cdd48a22	-0.21021113443664868
92	0xbfaeca2e2bb88b52	-0.06013626369192217
93	0x3fb1104198360d51	0.06665430036632826
94	0x3fa458a3efd9f3e7	0.039738772419674544
95	0xbfac5b55c7870725	-0.05538433132779933
96	0x3ff156402775dfaf	1.0835572759078607
97	0x3fdb26970f41b623	0.4242303513518399
98	0x3ff28bd04851f27d	1.159134180546203
99	0xbfe3c791a416c554	-0.6181114392149234
100	0xbfda146e46ad2802	-0.4074969949912203
101	0x3fd4cc0b486364c7	0.3249538618961875
102	0x3fee052f6eba1e97	0.9381329691540995
103	0x3fe1277807f463b4	0.5360679774631678
104	0xc0018867eda132cf	-2.191604477388274
105	0x3fc864f4d4ae9461	0.19058094391690175
106	0xbfe84ea06bd524a1	-0.7595979791741635
107	0x3fe2ed242afded18	0.5914479102788475
108	0xbfdf7f652434af53	-0.49215057883951835
109	0xbfd8a1dc253ecdd8	-0.3848791469310675
110	0x3ff812b7b19d1daa	1.504569715312622
111	0x3fdbf962b59ae8eb	0.43709628805994666
112	0x3ff5f8418f198bfb	1.373109396918834
113	0xbfe8a898c996bef9	-0.7705806672365433
114	0xbfdbd97fe9cdd87e	-0.435150125812818
115	0x3fd3878fbbaa196c	0.30514901472670064
116	0x3fb44a6684d5a19d	0.07926026099233359
117	0x3fdde7fcea8e5e4e	0.4672844210230992
118	0x4001bcd82fc75f1f	2.217209218284452
119	0x3fc030840966544b	0.12648058375330815
120	0xbfe9f91c89b552f8	-0.8116591157546216
121	0x3fd6b1a17a0419b3	0.3545917216837566
122	0xbfc5d460a2135ec0	-0.17054374612665946
123	0x3f9e7e09eb136a6a	0.029777674649134424
124	0xbfdf1e07708f63ef	-0.4862078284473332
125	0x3ff6b4f8d53da8fa	1.4191826181145744
126	0x3fe02665c76b5b28	0.5046872038754815
127	0x4001706e0e3f13e3	2.17989741449354
128	0x3fe4f4038c5e6530	0.6547868482186114
129	0x3fc77d5cd24e0e3c	0.18351326245111632
130	0x3fef83b9af5b5b35	0.9848297524393731
131	0xbfccdfbee6398784	-0.22557817689363102
132	0xbfd709eaf9ced9bd	-0.3599803390055987
133	0xbff1ec6106b7cf26	-1.1202097189352087
134	0x3ffd3f58f7119e41	1.8279657031179257
135	0x3fe0366ff499ba40	0.506645181403492
136	0xbfed6864b82af57e	-0.9189933392550953
137	0xbfd80d21be2c00be	-0.37580150195573114
138	0xbfdab4753a46bff1	-0.4172642773728504
139	0x3fe91d3afa23395e	0.7848181615352521
140	0xbfbc0726be024685	-0.10948412073983078
141	0xbfd498ed6625e2b0	-0.3218339440859763
142	0x3ff569862959172c	1.3382627120167383
143	0x3fe987ad711f3739	0.7978121957218952
144	0x3feda591f4ba4436	0.9264611987911227
145	0xbfd5e540144f8210	-0.3421173284860126
146	0xbfc0ab9bc4a23950	-0.1302370748639512
147	0xbffa7fa5ff457154	-1.6561641665967572
148	0x3fe074fceb961e51	0.5142807580277325
149	0xbfe19d0b6844e7e6	-0.5504204784876918
150	0x3ff435e01ee7b9f9	1.2631531913026477
151	0x3fd04916cb1a6555	0.25446100076950035
152	0xbfcc91b65d1783c6	-0.22319678826809602
153	0xbfdd748052b94e21	-0.4602356727457125
154	0xbfb4fa0171d10f38	-0.08193978337027097
155	0x3fd6d51139c352f2	0.35675459519306607
156	0xbfc08d8e4f26628c	-0.12931994309180472
157	0x3ff9ee43f29acc36	1.6206702687020544
158	0x3fe4474f8fb9df89	0.6337049300336598
159	0x3fedda8ad7bc97a4	0.932927533493729
160	0x3f714aff20000000	0.004221912939101458
161	0xbfb58ac960000000	-0.08414896577596664
162	0x3fa12a9320000000	0.03352794423699379
163	0xbfc480c680000000	-0.16017991304397583
164	0x3fba5f3d20000000	0.1030157282948494
165	0x3fa23c1140000000	0.03561452776193619
166	0xbfbcce99a0000000	-0.11252746731042862
167	0x3faf100320000000	0.06066903844475746
168	0xbf948e6620000000	-0.02007445879280567
169	0xbfbf971560000000	-0.12339910119771957
170	0x3fc289b1a0000000	0.14482708275318146
171	0xbfc4979660000000	-0.1608760803937912
172	0x3fc063a460000000	0.1280408352613449
173	0xbfc2961ca0000000	-0.1452060490846634
174	0xbfbfcca320000000	-0.12421626597642899
175	0x3fadd19020000000	0.05823946371674538
176	0xbfab19b7a0000000	-0.05293058231472969
177	0xbfc4118a20000000	-0.1567852646112442
178	0x3fc2eb9860000000	0.1478147953748703
179	0xbfc047ef00000000	-0.12719523906707764
180	0xbfc5e87f60000000	-0.17115776240825653
181	0x3fb36c60a0000000	0.07587245851755142
182	0xbfc21a7f80000000	-0.14143365621566772
183	0xbfb94a39c0000000	-0.09878884255886078
184	0xbfa12c5860000000	-0.03354145213961601
185	0x3fa0462d20000000	0.031785402446985245
186	0xbfb80099c0000000	-0.09375916421413422
187	0xbfc42151c0000000	-0.15726682543754578
188	0xbf777ee4a0000000	-0.005736249033361673
189	0xbfc38be4c0000000	-0.15270671248435974
190	0xbfa9b669a0000000	-0.0502198226749897
191	0xbfac9050c0000000	-0.055788539350032806
192	0x3fef6da2d34192a1	0.9821333051773601
193	0x3fd579a612c43432	0.3355498488679728
194	0x3fd7c097169e3df9	0.3711297722702223
195	0xbfcac22f0be9dccb	-0.2090510185405264
196	0xbfe69c23769e6462	-0.7065598789951191
197	0xbfe165b1ccb5ea38	-0.5436638830427176
198	0x3ff6199319dcc3ea	1.381243802094327
199	0x3fcc11195587d527	0.2192718188886513
200	0xc0070f71619f1e05	-2.8825404764827476
201	0xbfd608ec0f86bcdd	-0.34429456249467966
202	0xbfcd2d56d08a16a4	-0.22794614012325554
203	0x3fe44c621650cbfe	0.6343241153575716
204	0xbfd02fec4c5d5f65	-0.2529249902486213
205	0x3fc0115da8ae70cd	0.12552996384045514
206	0x3ff68c36cc6bfd23	1.409231947443751
207	0x3fe577bfd519fe7e	0.6708678400172656
208	0x3ff44f723ef9d2b9	1.269396062850474
209	0xbfd67e0a43cf46f5	-0.3514428770259735
210	0xbfcf67ea6b5f380e	-0.2453587555195899
211	0xbff6e4d7f2c36d0d	-1.4308700068421019
212	0x3fa6c758a3c98992	0.044489641183434916
213	0x3fda0777d205adbb	0.4067058135030625
214	0x400235a300984087	2.2761898085082666
215	0x3fe0dfc75728b8c5	0.5273167326284002
216	0xbfe179088a44b1bf	-0.5460245800546132
217	0x3fdbab8dbb2711a0	0.4323458030378564
218	0x3fbf3e632c111678	0.12204570604179732
219	0x3fe15beba4fe098f	0.5424707624918471
220	0xbf966a8a19799c6b	-0.021890790753243666
221	0x3ffadb995b630717	1.67861304948787
222	0x3fe504686ac1450a	0.656788071161061
223	0x3fed7cdbfec7ff39	0.9214916206546838
224	0x3ff89e262c5ced08	1.5386106236390464
225	0x3fe5b897a6d8a1b7	0.6787832506861865
226	0x3fe754bed9414812	0.7290949099790416
227	0xbfeae3e027784ba8	-0.8403168459793635
228	0xbfe343ff60bdbe4e	-0.6020504846073409
229	0x3fc70f9f135cea6e	0.18016422696549078
230	0x3ffada50de467408	1.6782997782349884
231	0x3fe0f469e5a2eca0	0.5298356518827809
232	0xc0010b5d8e93fa56	-2.1305495394620193
233	0x3fe365c343ce5712	0.6061722111068966
234	0xbfe55336fec6198e	-0.6664080596972768
235	0x3fde2d64fbdbeb43	0.471520658451187
236	0xbfe5d0e67751943b	-0.681750519794725
237	0xbfd3b220a51c3897	-0.30774704097792366
238	0x40002a32109caddc	2.0206033037008932
239	0x3fdb985353024459	0.43117220980008636
240	0x3ff020d93db08205	1.0080196771378962
241	0xbfe86908b9ab056a	-0.7628215433434609
242	0xbfbf6fab104756e3	-0.1227976717703672
243	0xbfdca5d49ccee63d	-0.4476214915590367
244	0x3fd429ff622e9196	0.31506332958294914
245	0x3fdd8af39567d2f6	0.46160592642199505
246	0x40077812c4fccfc6	2.933629549946974
247	0x3f94ff35571ee16f	0.020504792635365584
248	0xbfe5087ca40ffaec	-0.6572859958976927
249	0x3fe33cad11821895	0.6011567441899098
250	0x3f9a5df057c13e75	0.02574897323239474
251	0x3fd70f99477c8525	0.3603270719632568
252	0xbfe1a94d5e134950	-0.5519167745026525
253	0x3ff9ce024d1d9562	1.6127951633764828
254	0x3fe2bd3f7cf6d5a5	0.585601562567423
255	0x4001709d1e1eb01e	2.1799871781459066

bias f8 [32]
0	0xbfc4a9c6cc733a54	-0.1614311693469569
1	0xbfc143bf2af29558	-0.13487996670770985
2	0xbfb34cbe73058c7f	-0.07538976963182796
3	0xbfaf1ebb225835e0	-0.06078133386845841
4	0x3fd66a7596afdfa8	0.3502477618744657
5	0xbfb085ade0000000	-0.06453978270292282
6	0x3fe62bed9d3ef446	0.6928623267373346
7	0x3fd09f92d743fd6a	0.2597395994379982
8	0x3fdc7a0903eb0bb4	0.44494843847877097
9	0xbfb1380ea7b9d0bf	-0.06726161570424248
10	0x3f80a091a7ccffec	0.008118760999082007
11	0x3fe289cd4dc49bdb	0.5793215292841255
12	0x3fe41879f2860ea8	0.6279878365316636
13	0x3fd4d07b0a041e05	0.32522464731343376
14	0xbfd4ed60364dac03	-0.3269882707888316
15	0xbfa27060594a2258	-0.03601361360512517
16	0x3fd80f1fdcb39466	0.37592312386397564
17	0x3fb0099379226597	0.0626461191881361
18	0x3fc658a9fc484069	0.17458081072300338
19	0x3fabbf65b7336838	0.054194620717411046
20	0x3fe41b15b4da6e35	0.6283062488832402
21	0x3fea1cf67afef199	0.816035499788586
22	0xbfb947d214c8bd11	-0.09875214583802384
23	0x3fb875691f044eaa	0.09554154402968132
24	0x3fe222cb90e88ef9	0.5667474584811024
25	0x4003beb82d95038f	2.4681247292614397
26	0x3fea238daf1b37aa	0.8168400211377407
27	0x3fe889ddf346610e	0.7668294669593096
28	0x3fcfbb34937ee31f	0.24790055467544733
29	0x3fe52ba61347c48b	0.6615782143181986
30	0x3fbb261242ad14b0	0.10604967239221952
31	0x3fe82b6080db66f4	0.7552950398196274

weight f8 [4, 32]
0	0xbfb5c84b18145b24	-0.08508748376730729
1	0xbfc9b7f7a9d878b2	-0.2009267405819109
2	0x3fbd5b7a501a8a86	0.11467709022194059
3	0xbff51d94df326ae6	-1.319722053397237
4	0xbfe6f336cd5505ea	-0.717189217604923
5	0xbfbd2237e0000000	-0.11380337923765182
6	0xbff2489487c89e09	-1.1427197746323847
7	0xbff779e7fe142462	-1.467262260908932
8	0xbff17fdca5198c1f	-1.0937162827692715
9	0xbff173c95f92084c	-1.0907682164402273
10	0x3f8b36c9d3d2ed20	0.013288094307759624
11	0xbfe25880605a7703	-0.573303402128403
12	0xbfe8348ab4640737	-0.7564137957817597
13	0x3ffe62b22db201aa	1.8990957055067192
14	0x3ff68413dae2266f	1.4072454977162143
15	0xbff7a338688dba22	-1.4773487171293103
16	0xbfe13440e63926cd	-0.5376286026523417
17	0xbff525d275e5e059	-1.3217339139355515
18	0xbff66ba6a3250b8e	-1.4012819645729198
19	0x3fcfaaecf66121f2	0.24740373640294383
20	0xbff025eb036af670	-1.0092573293217377
21	0xc0016174f75e1063	-2.1725863767224367
22	0x3fb90eae4bdfb0fd	0.0978802619208103
23	0xbff4837289a9ae2a	-1.282091653581015
24	0xbff410ee6f568c13	-1.2541336392539548
25	0x400783f3305ff9e2	2.9394286898889144
26	0xbfeeb163d83b596e	-0.9591540549543376
27	0xbfea9aab8e578915	-0.8313806324115683
28	0xbfe990ae54b3ea1d	-0.7989112524367702
29	0xbfe1bd28ec8e4e47	-0.5543408031684941
30	0x3faf7138aff3ee46	0.061410685995693146
31	0xbfe7b120d5101e18	-0.7403721009622499
32	0x3ff014389d480a6f	1.0049368041806266
33	0x3f7e5e89ac9ca6f6	0.007414377012347142
34	0xbf46ef1f2716c336	-0.0006998922455548676
35	0xbff59c8d0952ee60	-1.350720440313033
36	0xbfe8d97447701a9f	-0.776544703986321
37	0xbf855fef40000000	-0.010436886921525002
38	0xbff35f96ada6f121	-1.210837057427007
39	0xbff509af9a2b6388	-1.314864732956467
40	0xbff000efbda54648	-1.0002286346465485
41	0xbff47d84b5f9cc28	-1.2806441410473415
42	0x3fc2ac6c7743e951	0.14588695357799478
43	0xbfd1ca6cb4cbee36	-0.2779800191490013
44	0xbfeaee07fa3d0670	-0.8415565383404111
45	0x3ffdfa0a1827e7b2	1.8735447829808263
46	0x3ff81d880a962c59	1.5072098172702424
47	0xbff34a188623c40f	-1.2055897941429554
48	0xbfdbbcd1ad0cf233	-0.43339960002393524
49	0xbff3cb327ea5be0c	-1.2371087023892668
50	0xbff17ccdf9f85982	-1.0929698719461105
51	0x3fe7ac5763357ba9	0.7397877633737738
52	0xbff7c6e291460597	-1.486055915331553
53	0xc0017ff733050ce6	-2.1874832139889007
54	0x3fbab17aae25705a	0.10427061797730755
55	0xbff585676e077005	-1.3450693414697537
56	0xbff4d0ddd5eacd66	-1.300992808927583
57	0x4004f6f14dddfeb6	2.6205774386761176
58	0xbff1dee442002ce0	-1.1169169023658512
59	0xbfebc2ae00f8205e	-0.8675146120958848
60	0xbfe8703e9e4f144a	-0.7637017337771195
61	0xbfdd505223d73755	-0.4580273962027282
62	0x3fb1312cea3506cb	0.06715660779903058
63	0xbfd7d71d630752e5	-0.3725045649601227
64	0x3fedd72a2ba7886d	0.9325152256608483
65	0x3fb179951e7d3029	0.06826145166741128
66	0x3fa1e434b6f188ed	0.03494419797131507
67	0xbff9006ca1b3a6c8	-1.5626035992121832
68	0xbfe76f754d07e704	-0.7323557381161838
69	0xbfa93a6d00000000	-0.04927387833595276
70	0xbff472ee7be08bc2	-1.2780594672155847
71	0xbff04aebb75c4f09	-1.018291202785749
72	0xbfead6887dd84542	-0.8386881311327345
73	0xbffc7e2fb6bb198a	-1.7808072221683653
74	0x3fc2cc5537513d53	0.1468607444862565
75	0xbff505d2b34eb788	-1.3139216427038907
76	0xbfe656adc74a06e0	-0.6980809109083701
77	0x3ffc61394ee5f3aa	1.7737362939799177
78	0x3ff14d50dc084885	1.0813759417547157
79	0xbff0957cee0d1c9d	-1.0364960955501268
80	0xbff128a72535b74f	-1.0724250272282523
81	0xbff92b7a101d3bc1	-1.5731144551716485
82	0xbfde17bf58477b45	-0.4701994287587932
83	0x3ff59b6e43e6048b	1.3504469539914534
84	0xbff58c846e4388ba	-1.3468059832744488
85	0xc00005fb4f3b4c4d	-2.0029207410785035
86	0x3fb5adaf19a5dc3a	0.08468145729226331
87	0xbffe65855cd9b7d8	-1.8997853877040054
88	0xbfec01be176290fd	-0.8752127129305617
89	0x4004d998533ca410	2.6062475684052586
90	0xbfdd758ed7bc4b92	-0.4603001696388499
91	0xbfe8456376445b1d	-0.7584702787306444
92	0xbfcb2cd2e1f2bfec	-0.21230541260365443
93	0xbfeec4374aac3ec9	-0.9614521463826914
94	0x3fb6aed9095d97be	0.08860546568538916
95	0xbfe663a875a0fe6a	-0.6996652886809447
96	0xbfe77c2ae6a1aff9	-0.7339071754954595
97	0x3fbe4444951139e1	0.11822918547952767
98	0xbfb7f9b575cbe1ae	-0.09365400434388135
99	0xbfef60d22a12729d	-0.9805689641685437
100	0xbfe643e6ad026357	-0.6957887057388729
101	0xbfc4b3a580000000	-0.16173237562179565
102	0xbfed8a80239a635e	-0.9231568045971519
103	0xbff64a2d1a8a546d	-1.3931094204647494
104	0xbff57238ed15e4fb	-1.3403863202241257
105	0xbff9332fec233450	-1.5749968742486722
106	0x3fc0db742d534cd2	0.13169719899324278
107	0xbfeb60859883e72f	-0.8555324534238248
108	0xbfe99222989954ef	-0.7990887623260771
109	0x3ffe0a2135088f7b	1.8774730750673985
110	0x3ff29beb137e9e39	1.1630659829624064
111	0xbff877af10c7ea25	-1.5292196898941566
112	0xbfea5157f6cb4d47	-0.8224296398351861
113	0xbff15d5db1dd9523	-1.0852944324372593
114	0xbff8fde362921fb6	-1.5619844293996556
115	0xbfbd0f1f9ba85471	-0.11351201582177041
116	0xbff1353ef5540c66	-1.075499494851806
117	0xc0012d7eaa181bd5	-2.147214249478092
118	0x3f90ea860f221873	0.01651963679662356
119	0xbff01f41d90f90fb	-1.007631156820081
120	0xbff63098270e3756	-1.3868638539892877
121	0x4009b170f475076f	3.211641225644534
122	0xbfeac782b8cf6416	-0.8368543252537417
123	0xbfe5a1c59bd013fe	-0.6759975474566315
124	0xbfe9a9a91a53303f	-0.8019605173262859
125	0xbfe7d5e4248e619e	-0.7448597635257561
126	0xbfb7f21163e63193	-0.09353741349167981
127	0xbfea7c066740b900	-0.8276397720963189

bias f8 [4]
0	0xbf9cb84debdcf1a0	-0.028046815415324056
1	0xbfb626ab82f87b8a	-0.08652755687260885
2	0xbfd5f495c8963ac4	-0.343053289304333
3	0xbfd8df0486a8e194	-0.3886119189296775
